ml_service/models/player_props/lstm_model.pth (torch, 859381 bytes, 11 tensors)

lstm.weight_ih_l0 f4 [512, 13]
00000000: a811 923e 3902 333d ea11 a53c 4258 2ebd
00000010: c548 ac3d f638 8fbd aa18 d73d 49a1 9dbb
00000020: 8368 b839 c93d c43d eb41 8bbd d2db afbc
00000030: de2c f0bd ec39 483e 7564 31bd a300 f7bd
00000040: 9fa6 543e 5344 eebc ae4a 6a3c fcd9 6f3e
00000050: 10c3 853a bc24 273d 0c5b 8bbd c07a bc3d
00000060: ac39 a53b 1700 193e 09d4 b53d 8113 9b3d
00000070: 4ceb 173d c08d 4abd 6f6d bd3d 9c90 1dbe
00000080: 1ddb 21be 9e4a 2fbe e82b c43d 817c 8139
00000090: 2faa 54bd cd75 04be 2910 113e f837 883e
000000a0: e10f b9bd 6337 e6bd 36d2 133e 0d22 febc
000000b0: 4862 03be 1e24 a93e 80be 8dbd bcce 973c
000000c0: 2ad9 cf3c 8573 8abc 81b5 1d3d f33a 193d
000000d0: bb5c 883e 6218 b93d 56c4 263e e732 d53d
000000e0: 5749 393d 4c44 57be c7f3 05bd 9630 d2bd
000000f0: 411b 2b3d 68ca 9b3d 615d bc3c 0176 f03d
00000100: bd41 36bc 7e5d 8b3e d64a e4bc 8e95 77bb
00000110: ba36 083e 00a4 cabc f1d8 45be 7ae6 7e3e
00000120: e699 953d cfad 59bd 7feb 823d c7d8 c3bc
00000130: 3e60 c13d 111c 733d f93b 283e 899c c03d
00000140: fdd2 2fbd 8f77 353d 3f2a 093e 0ecb d6bc
00000150: d4e0 c03d 4971 3b3e 99a5 19bd 8195 d33c
00000160: 098d 123e ecaf 5fbd 48d6 5bbe ad89 af3e
00000170: c84e 193d d7fb 9a3d 8823 fcbc 2737 a53d
00000180: 9232 d4bd 2217 bb3d b373 4e3e 34a3 143e
00000190: 1650 d73d 8632 49bd c4ba d7bc 686a 133b
000001a0: af2f 923e d5f9 bb3d 7bbb 2b3e 541d e63d
000001b0: d0b5 b23d 0248 2fbd ea09 cf3d b1d9 dc3c
000001c0: c2a6 873c 85aa 82bc 6d9f 19be bef2 5f3d
000001d0: f6e2 78bd 4ce6 233d 79df a13c 4d8b d73c
000001e0: ef97 953d 6883 7f3e 82a4 ecbd 01c3 123d
000001f0: 8a10 9cbd 4a6a 98bd f183 e4bd 5276 84bd
00000200: 5e35 a4bd 4703 5abd 0768 9b3e ea3d d63d
00000210: f374 f43d 4fca 063e 2d06 f63c 7085 23bd
00000220: f342 263e 8726 a5bb 08bc e8bc d70d 0cbd
00000230: eb75 8abb 8404 55bd 6808 20ba 0372 6f3e
00000240: 467c 913d d8dd 81bd 4e46 833d 3961 933b
00000250: 09d1 9cbd 0cc6 073e 763d dc3d d955 d7bc
00000260: faee 33bc ae5d 9dbd 6bd7 713d 00cd d6bd
00000270: df80 123e 9b57 a43d da3c 0abc 0b44 c53d
00000280: aa3f 473d 93a4 b83d cb87 153e 44ab e1bc
00000290: 47f8 a9bc 03b3 10bd 5a23 84bd f6a1 4dbd
000002a0: cf29 ee3d a545 873e 898b a63d 5ebc dabd
000002b0: efcf 1d3e 5f9d 3d3e 5962 58bd 842a 283c
000002c0: 3219 a3bd 60a1 74bd ced0 a6bd 5723 ce3d
000002d0: 4f67 61bd 7c52 be3c 904c ae3e 87e7 2a3e
000002e0: a7be 81bd a9d9 4a3e bef7 fb3d ce83 22bd
000002f0: 96af 7b3e 9f8b 1cbd 849e a03c febf 13bc
00000300: 787f 4b3c caee 59bd dd77 ca3c f5db 033e
00000310: 9075 2fbd c873 dfbd 90f9 24bd db09 553a
00000320: 87b6 0abd 0c73 ba3d f514 bcbc 557c e63c
00000330: 498d 803d fa98 af3c a41f c43d f884 c0bb
00000340: c65a 893e ab62 c3bc bb9f 27bd eeaf cb3b
00000350: e920 433e 6cad 003b 0f75 823e a463 97bd
00000360: a709 ea3c 30b3 43bc 51f5 9cba 0694 75bb
00000370: 1366 213e 3e12 953e 4ef8 f2bc 112b a03d
00000380: 0606 f03d bed2 07bd a5e7 0abe 7b57 b1bc
00000390: e52e ac3c e0b7 86bd 65ab 993d 2cf1 893d
000003a0: 40df 483d 74e9 4abe f067 8b3e 2039 03bd
000003b0: 0dd8 4c3c e2fc 3f3e 8f41 033c b57f a5bd
000003c0: 03d3 a63e 5f8b 893d cb56 38bc 4708 1dbc
000003d0: 6119 a13d fad9 f9bd 6fc8 f5bb 6aa9 463d
000003e0: 4906 f4bd 2ca7 c1bd bffd 1e3c 30e9 523d
000003f0: dbaf c43d b13e 1d3e bd8a dabc d51e b73d
0.28529096 0.04370329 0.020150144 -0.042564638 0.08412317 -0.06993286 0.10502751 -0.0048104865
0.00035173082 0.09582097 -0.06799682 -0.021467123 -0.11727308 0.19553345 -0.043308694 -0.12060668
0.20766686 -0.029085314 0.014300032 0.23422998 0.0010205228 0.040806517 -0.06804475 0.092031
0.0050422754 0.1494144 0.08878333 0.075720794 0.03708963 -0.04945159 0.092493884 -0.15387195
-0.15806241 -0.17118308 0.09578687 0.0002469756 -0.051920112 -0.12935562 0.14166321 0.266052
-0.09036232 -0.11241033 0.14435658 -0.031022096 -0.1283046 0.33035368 -0.069211006 0.018531196
0.025372107 -0.016900787 0.038503174 0.037409734 0.26633248 0.09037854 0.16285834 0.104100995
0.045235958 -0.21022147 -0.032703187 -0.10263173 0.04177404 0.07606965 0.022993745 0.117412575
-0.011124072 0.27219766 -0.027867716 -0.003777835 0.13302127 -0.024736404 -0.19321038 0.24892607
0.073047444 -0.053144272 0.063925736 -0.023907078 0.09442185 0.059352938 0.16429128 0.09404857
-0.042925823 0.044303473 0.13395022 -0.02621987 0.094178826 0.18304934 -0.03751144 0.025828125
0.14311613 -0.05461113 -0.2146846 0.34284726 0.037428647 0.07567566 -0.030778661 0.0806716
-0.10361208 0.091352716 0.20161323 0.14515382 0.10513322 -0.04912045 -0.026334174 0.0022493843
0.28552005 0.09178511 0.16770737 0.11236063 0.08726084 -0.04279328 0.10109313 0.026959272
0.016559009 -0.01595045 -0.15002222 0.054674856 -0.06076332 0.04001455 0.01975988 0.026311541
0.0730437 0.24952471 -0.11554815 0.0358305 -0.07620342 -0.07442148 -0.11157978 -0.0646788
-0.080179915 -0.05322578 0.30352804 0.10461028 0.11936369 0.13163112 0.030032242 -0.039922178
0.16236477 -0.005039993 -0.028409973 -0.034192886 -0.0042254827 -0.05200626 -0.0006104768 0.23383336
0.071037814 -0.063411415 0.06409894 0.004497674 -0.07657058 0.13259143 0.1075391 -0.026286053
-0.010982269 -0.076838836 0.05904333 -0.104883194 0.14306973 0.08024522 -0.00843736 0.09632119
0.0486447 0.09015765 0.14602582 -0.027547486 -0.02074827 -0.03532697 -0.06452055 -0.050203286
0.11629068 0.26420322 0.08132083 -0.106804594 0.15411352 0.18517064 -0.052828167 0.010264043
-0.0796379 -0.05972421 -0.08145295 0.10065334 -0.055030163 0.023232691 0.34042788 0.16689883
-0.06335192 0.19809593 0.123031124 -0.03967648 0.245787 -0.03821909 0.019606836 -0.0090179425
0.012420528 -0.053206243 0.024715358 0.12876876 -0.042836726 -0.109107554 -0.040277064 0.0008126774
-0.033865478 0.09103975 -0.022959212 0.028135458 0.06276948 0.02143525 0.095763475 -0.005875226
0.26827067 -0.02385076 -0.040923815 0.006216041 0.19055523 0.0019634617 0.25479934 -0.07392052
0.028569056 -0.011944577 -0.0011974965 -0.0037472262 0.15761594 0.2911548 -0.029659417 0.07820714
0.11719899 -0.033159964 -0.13564928 -0.02164816 0.021018455 -0.0657804 0.07503394 0.06735453
0.049041033 -0.19815618 0.27227736 -0.0320369 0.012502682 0.18748811 0.008011236 -0.08080999
0.32582864 0.06716036 -0.011251162 -0.009584493 0.07866169 -0.12199779 -0.0075007 0.04850141
-0.11915261 -0.09455714 0.0097040525 0.051491916 0.09603854 0.15355946 -0.026677484 0.089414276

lstm.weight_hh_l0 f4 [512, 128]
00000000: 2e18 293d 3ad5 5e3d 4010 42bd dc9b b3bc
00000010: 1868 55bc 7372 05bd 4024 903a ecec df3c
00000020: bc04 8cbd fee8 11bd b060 a7bd b076 91bc
00000030: 0061 6f3c 11ea b2bd dea0 7abd a00d 9dbc
00000040: ce75 463d 5ed5 9bbd f0b7 9bbc 480b 7ebd
00000050: c528 61bd 5026 8cbb e52d 99bd 84aa 0d3d
00000060: 2cad 053d 4a90 12bd caac 9ebd 60e0 7c3c
00000070: adba b1bd 1df0 b4bd dfd2 a23d 82d7 473d
00000080: 38a0 a63c 6573 b1bd 823f 8fbd 8e14 43bd
00000090: 8c24 babc 1788 8fbd 4741 97bd f4f5 0a3d
000000a0: d6a8 363d c307 23bd 80fd 97bc dbb5 8e3d
000000b0: 72b7 183d c36a 9a3d 81db 883d da22 6bbd
000000c0: b041 0e3d 221f 86bd 805e 2dba dd84 a4bd
000000d0: 92b3 3d3d e8f2 1cbc 49f1 8e3d 5b7c 863d
000000e0: 5806 2f3c 50ee 823c a8e4 a6bd ab36 0bbd
000000f0: 18da 9c3c d1a2 a83d 9a41 a0bd 20e2 69bb
00000100: a2f5 4b3d c08e 823c d555 12bd 7434 92bd
00000110: 9888 7dbc e6e6 6e3d 5334 913d da2b 7e3d
00000120: 0d82 aebd b3d5 35bd 0e89 07bd 5cba d0bc
00000130: fc30 e83c 3564 8d3d f408 97bc 4edb 83bd
00000140: 70d3 a7bb 8fb2 7ebd e8f2 06bc 2800 be3c
00000150: 80a8 323a 1eae febc 30fb 463c e0b5 63bb
00000160: 2fb2 8a3d a88c 07bc ce13 6bbd 207b a1bc
00000170: 9523 963d 2011 58bb e0d0 50bb b0f5 57bc
00000180: 2650 733d fe90 1c3d 572e 913d 208f 573b
00000190: cd97 a83d 909f 583c 4063 c73a c010 b1bc
000001a0: 3bf4 13bd 3b79 75bd 4617 083d 1619 b1bd
000001b0: b87c 4a3c fb3f b03d babf 663d 596c 62bd
000001c0: c809 28bc 8b15 6cbd 7407 123d 20bc 6cbb
000001d0: 28b5 403c e094 ef3b 0e46 1e3d 964d 2a3d
000001e0: 1283 6f3d f85e cbbc 3464 f53c d67e 4f3d
000001f0: 57ee 28bd a143 843d d6f9 29bd ec21 943c
00000200: 4863 07bd e0ec 6e3c 5d05 873d 7a1f 293d
00000210: 7089 a9bc 2e82 743d 88a1 5a3c b9fe b4bd
00000220: c040 ce3a f04e 143c 61ba adbd d85b 233c
00000230: f67b 663d d793 9a3d 938d 97bd bfd9 adbd
00000240: bcfd a0bd 56b6 523d 42e8 613d ef30 a73d
00000250: 6efd 1b3d 6e65 7ebd cbac 983d cb54 883d
00000260: 5a21 483d c049 153d c277 89bd 6901 29bd
00000270: 4067 eebb e5c8 59bd 1df3 82bd c0aa dd3a
00000280: 2f3f a03d b8b2 5ebc f168 a53d f455 0e3d
00000290: 860e d5bc aaaf 1fbd c357 47bd 00de 8abb
000002a0: 61c4 9d3d c06e 9c3a a0bc 303b 002b 863b
000002b0: 50ad 9cbc 9041 863b f85a b63c e3b4 4ebd
000002c0: 6803 94bc 247c f4bc 9e70 eabc d634 3b3d
000002d0: 8ea9 67bd 32cb 7c3d f88a d63c 5b19 813d
000002e0: ca87 163d 2087 d53b b33b 953d 4088 e03b
000002f0: 581c 013d 100b 003d fd40 9a3d 25db 31bd
00000300: ba4a 75bd 587d 7fbc 9ce3 a1bd f4b2 fa3c
00000310: 0986 8fbd 4f7b 21bd c024 0dbb d1f4 a03d
00000320: 9067 2e3c c6b8 733d 586d 66bd c0ab 38bb
00000330: c240 113d 3ff5 9a3d 3af7 4dbd c0ee feba
00000340: 70d6 5cbc d2ea 45bd 5eb3 373d 8e05 1f3d
00000350: 1a2c 0ebd 282d 84bd 8a2e 103d 2297 a0bd
00000360: da33 50bd c21a 2c3d 30fd 0b3d 93c3 21bd
00000370: e010 993b 0050 c1bc ef91 a73d 4018 703b
00000380: e850 aebc b85b b13c 624e 083d db05 9a3d
00000390: e018 ce3b 1c45 a7bd 9428 aebc 84c0 9fbc
000003a0: 0e52 633d 381d 92bd 603a dcbc 2f7d 96bd
000003b0: 00ca febb a46a 35bd b8b5 8fbd 0099 663b
000003c0: d6ca 16bd 07a7 a0bd fee2 a9bd 68a7 e73c
000003d0: ba00 633d c0b6 e93a 805a f53c 8308 ab3d
000003e0: 5e05 1b3d 952d 10bd 5ab6 1e3d d300 03bd
000003f0: 1428 c23c 9e36 373d f2ed 463d 5f75 b2bd
0.041282825 0.054402567 -0.04737878 -0.021924905 -0.013025306 -0.03257985 0.0010997131 0.027334653
-0.068368405 -0.03562259 -0.081727386 -0.01775679 0.014610529 -0.08736051 -0.06118857 -0.019171536
0.04845219 -0.07609056 -0.019008607 -0.062022477 -0.05497052 -0.004277028 -0.07479457 0.034586444
0.032635853 -0.035782136 -0.07747801 0.015434355 -0.08678184 -0.088348605 0.07950377 0.04878951
0.02034007 -0.08664588 -0.06994535 -0.047627024 -0.022722505 -0.07008379 -0.073854975 0.033925965
0.04459461 -0.039802324 -0.018553495 0.0696828 0.037284322 0.075398944 0.06682492 -0.057406284
0.034730613 -0.06548907 -0.0006613508 -0.08033154 0.04631383 -0.009579398 0.06979615 0.06566688
0.010682665 0.015982777 -0.081490815 -0.033987682 0.019146964 0.0823418 -0.078250125 -0.003568776
0.0497948 0.01593721 -0.035726387 -0.07138911 -0.015474461 0.05832567 0.07090058 0.06205354
-0.08520899 -0.044393253 -0.03308969 -0.025479488 0.02834367 0.069038786 -0.018436886 -0.064383134
-0.005121641 -0.062182005 -0.008236624 0.023193434 0.00068152696 -0.031088885 0.012144849 -0.0034745857
0.06772267 -0.008273281 -0.057391934 -0.01971203 0.073310055 -0.0032969192 -0.003186278 -0.013181135
0.059402607 0.038224213 0.07088917 0.0032891706 0.08232079 0.013221636 0.0015212074 -0.021614432
-0.03612159 -0.059930068 0.03322532 -0.08647363 0.012358837 0.08605953 0.05633519 -0.05527911
-0.010256238 -0.057637732 0.03565164 -0.0036122873 0.011761941 0.0073114485 0.038641028 0.041577898
0.058474608 -0.024825558 0.029955007 0.05065807 -0.041242924 0.06458212 -0.041498028 0.018082581
-0.033053666 0.014582843 0.0659282 0.041289784 -0.020695418 0.05969446 0.013344176 -0.08837647
0.001573585 0.009052023 -0.084828146 0.009970628 0.056270562 0.075477295 -0.0740005 -0.084887974
-0.07860896 0.05144342 0.05515314 0.0816363 0.038083486 -0.06210845 0.07454833 0.06656798
0.04885993 0.036447287 -0.06712295 -0.04126111 -0.007275492 -0.053170104 -0.063940264 0.0016911849
0.07824551 -0.013592415 0.080766566 0.03474994 -0.026007902 -0.038985886 -0.04866768 -0.0042378902
0.07703472 0.0011934862 0.0026967898 0.0040944815 -0.01912561 0.004097171 0.022260174 -0.050465476
-0.01806803 -0.029844351 -0.028618153 0.045704685 -0.056558184 0.06171722 0.026189312 0.06303664
0.036750592 0.0065163523 0.07286777 0.0068521798 0.03152117 0.03126055 0.07531927 -0.043421883
-0.059885718 -0.015593849 -0.07904741 0.03060291 -0.07007987 -0.039424237 -0.0021536797 0.07859195
0.010644808 0.059502386 -0.056256622 -0.0028178543 0.03546215 0.07566308 -0.0502846 -0.0019449815
-0.01347886 -0.048319645 0.044848792 0.038823657 -0.034710027 -0.06453925 0.035200633 -0.07841326
-0.0508307 0.042017706 0.034177005 -0.039493155 0.004671201 -0.023597717 0.081821315 0.0036635548
-0.021278813 0.02165018 0.033277877 0.07520648 0.0062895864 -0.081674784 -0.021259584 -0.019500978
0.055498175 -0.07134479 -0.026883304 -0.073480956 -0.007775545 -0.044291154 -0.07017082 0.003518641
-0.036814533 -0.07844358 -0.082952484 0.028278068 0.055420615 0.0017830953 0.02995038 0.08351233
0.037846915 -0.03519972 0.038748123 -0.031983208 0.023700751 0.04472982 0.048566766 -0.08713793

lstm.bias_ih_l0 f4 [512]
00000000: 49e3 c73c 50b1 e33d 48fd 7f3d 9d72 293d
00000010: 613f 88bd 6bf3 76bc 414e 673d 2861 453c
00000020: 7844 e83d 5312 0c3e f369 033d 3a33 a03d
00000030: 5573 d13c 136b e33d 6168 093d d9d3 0e3e
00000040: 8ed2 003e ac6d 263d 6ad5 b53c 5af1 203d
00000050: f457 6d3d e388 a2bb 60a2 263e 1699 583d
00000060: 86c8 7bbd fb9e 003e f0bf 613b 7feb a23c
00000070: e932 b13d 57b1 cd3b 55bc 0f3e d3ff d93d
00000080: 5fe7 0d3e 59d4 cabc a3e1 9b3d 6840 5f3d
00000090: fd21 203d 7705 9e3d 1a9c 123d 6732 233e
000000a0: 5ae3 99bc 805e 03bd 9e7a 823d 0cab 723d
000000b0: d40f 12bd ac5a 013e ddbd e43c 4d8e 283c
000000c0: 8923 873d be32 823c fd21 f43c 831a bb3c
000000d0: 42f6 8dbd fd27 2dbd ce6f 743d 0c19 da3d
000000e0: 625b a73c 4113 573d 37bc 3d3c c280 1a3e
000000f0: a6cd b73d 7911 213e 9d24 99bd d025 eebc
00000100: c27e 163e da56 2a3d f869 153e 88b3 0f3d
00000110: 262d 6f3d 38fc fc3d c05e 8fbb f55e 5c3d
00000120: dec2 f73d 1bd4 633c 3270 233e 3771 4e3d
00000130: 3024 5c39 5372 d13d b75a 573d bddd 9c3c
00000140: db0f 963c 2bbb 79bd bb26 f63d e488 c53c
00000150: dab9 91bc f0db 913e 76d1 f5b9 7b3a 1cbd
00000160: c546 90bd 5ab2 1bbd 720c ad3d 8fd7 8c3d
00000170: 4336 c33d 819b 473c bf27 183e 9549 0f3e
00000180: 7021 24bd f52e 1fbd fa4a 123d c188 023e
00000190: a2c8 893d 8862 ffbc 89da a93d 2e22 8e3d
000001a0: 9d49 3f3d 943b 753d 4d01 e03d 7e4f 0a3e
000001b0: acb6 273d 3354 e73d dbfd 4f3d ca28 c43c
000001c0: d69c 613d 5966 1c3d 1f29 e5bc 1798 e63d
000001d0: f005 9bbd c67e f83d d06c fc3d f4ec 8cbd
000001e0: df8d 3fbd 3e3a 5b3d fdc3 703d 467e 843d
000001f0: 2dbe 2cbd ee84 213d d818 26bc 4877 873d
00000200: 3d99 29bd a4fd dd3c 0e66 b3bd a897 a0bd
00000210: 2a2d 173d f8ad 763c 80e1 2dbd 3e3c d6bc
00000220: 3345 b13d 30fd 09bd 26ae 683d 4320 44bd
00000230: be89 1f3d cb67 54bd d0f1 7b3c f421 f33c
00000240: 3709 ad3d ab11 8b3d 1bb9 98bd b31a a13d
00000250: 4c18 f1bc 9d5a 8cbd fc0e 84bd c0ed edbb
00000260: df3a 21bd 6003 4e3c 76eb 6abd 78ae aabc
00000270: 6efe 47bd 4aed a8bd 9c53 be3c d1ca 44bd
00000280: f0eb 3abc 28cc fd3c 80bb cebb 7c52 adbc
00000290: 40df b33c d899 813c 754e a83d 73f4 63bd
000002a0: 3402 8fbd ac81 8dbd c08c 133c 80b7 e8bb
000002b0: 201e 8abd de28 673d 208f 8a3b e40e c9bc
000002c0: 0610 f8bc ec9f a8bc d0a1 09bc 58f4 cb3c
000002d0: 1199 44bd f5df 873d 5e92 9cbd 53bc b13d
000002e0: 5705 9fbd 9f50 863d be20 77bd 8c6f f83c
000002f0: 188d fbbc fa73 553d b2f7 84bd ec5e 87bc
00000300: b086 023d 4122 a33d 64e8 bfbc 2ebe 81bd
00000310: 3628 313d 1b21 04bd e80d a8bc e8cd 85bc
00000320: 1414 2ebd 1207 223d 8be1 9bbd 2615 753d
00000330: fedb 2b3d aeed 94bd 70c9 abbd 35ad afbd
00000340: 4885 543c 907d 68bd ac18 0d3d ee04 2cbd
00000350: ea3e 513d 6740 863d 18ac 2ebd 2753 90bd
00000360: 404d b23a c07a fdbc 2a3a 223d 0c90 cfbc
00000370: 6af1 adbd 20ba 20bd 1bb1 afbd 8a76 92bd
00000380: 2d52 01bd 9cc8 d03c 15f9 a43d 48d3 93bd
00000390: 9c4d 4dbd ba0f 553d ce60 443d 3ebe 3cbd
000003a0: d936 ae3d ac13 7dbd 580a 80bd 010b a4bd
000003b0: 40d0 03bd 00f4 8eb8 2eeb ecbc 78ef 583c
000003c0: d969 abbd 3c9d a8bd 508b 8c3c f057 97bd
000003d0: c0ed aabc 4ef3 7e3d 17d2 a5bd b80d 9dbd
000003e0: 6ff9 abbd f3ad a4bd 70ef 913c 9ac9 443d
000003f0: 30b2 8ebb 3a26 5a3d 3009 033c f8ce c43c
0.02440037 0.11117804 0.062497407 0.04136907 -0.066527136 -0.015072684 0.056471113 0.01204709
0.113411844 0.13678865 0.032083463 0.07822271 0.02556769 0.11104407 0.03354681 0.13948001
0.1258032 0.040631935 0.02219649 0.03929267 0.057945207 -0.004960166 0.16272879 0.05288037
-0.06147053 0.12560646 0.003444668 0.019887684 0.086522885 0.006277244 0.14036687 0.10644498
0.13857792 -0.024759458 0.07611396 0.054504782 0.039094914 0.07715886 0.0357934 0.15937196
-0.018785167 -0.032072544 0.063710436 0.059245154 -0.035659626 0.12632245 0.027922565 0.010287833
0.06598575 0.015893336 0.029801363 0.02283979 -0.069317356 -0.042274464 0.059676938 0.106493086
0.020429317 0.052508596 0.011580518 0.1508818 0.08974771 0.15729322 -0.074776866 -0.029070765
0.14696792 0.041586734 0.14591205 0.035083324 0.058392666 0.123527944 -0.0043753088 0.053801496
0.12097715 0.01390555 0.15960768 0.05040094 0.00020994316 0.10226884 0.052576747 0.019148702
0.018318107 -0.060969513 0.12019106 0.024113126 -0.017788816 0.28488111 -0.00046886102 -0.03814171
-0.07044748 -0.038011886 0.084496394 0.06877052 0.09531834 0.012183071 0.14858912 0.13992913
-0.04007095 -0.03886314 0.035716034 0.1274748 0.06727721 -0.031174913 0.082936354 0.06940113
0.046701062 0.05987127 0.10937748 0.13506886 0.040945694 0.112953566 0.050779205 0.023945231
0.05508121 0.038183544 -0.02797371 0.112594776 -0.07569492 0.12133555 0.12325442 -0.06881133
-0.04676616 0.05352234 0.05878066 0.06469397 -0.042173553 0.039433412 -0.010137759 0.06614548
-0.041405905 0.027098484 -0.087597 -0.07841426 0.036908306 0.015056126 -0.04245138 -0.026151773
0.08655777 -0.033688724 0.056806706 -0.04788233 0.03894972 -0.051856797 0.015377477 0.029679276
0.08449023 0.06790479 -0.07457181 0.078664206 -0.029430531 -0.068532206 -0.064481705 -0.007261008
-0.039362784 0.012574047 -0.05735346 -0.020835146 -0.048826627 -0.08248384 0.023233227 -0.048044983
-0.011408791 0.030981138 -0.006308973 -0.021157496 0.02195704 0.015820429 0.082180895 -0.055653047
-0.06982842 -0.069094986 0.009005725 -0.007101953 -0.06744027 0.05643546 0.0042284876 -0.024543233
-0.030281078 -0.02058407 -0.0084003955 0.024896786 -0.047997538 0.06634513 -0.07645105 0.08678498
-0.0776469 0.06558346 -0.06033396 0.030326627 -0.030706927 0.052112557 -0.06492557 -0.016524754
0.03186673 0.07965518 -0.023426242 -0.06335102 0.04325124 -0.032258134 -0.020514444 -0.016333535
-0.042499617 0.039557524 -0.07611378 0.05983462 0.041957848 -0.07271896 -0.083880305 -0.085779585
0.01297123 -0.05676037 0.034447357 -0.04199689 0.05108539 0.065552525 -0.04264459 -0.0704711
0.0013603345 -0.03094232 0.03960625 -0.025337242 -0.08493312 -0.039240003 -0.08578702 -0.07151516
-0.03157251 0.025486283 0.08055321 -0.07218033 -0.050122842 0.05201695 0.047943883 -0.046079867
0.08506555 -0.06178634 -0.06251973 -0.08009911 -0.032181025 -6.816536e-05 -0.028920736 0.013240688
-0.08369798 -0.08233115 0.017156273 -0.073898196 -0.020865321 0.062243752 -0.08096712 -0.07668632
-0.08397185 -0.08040991 0.017814368 0.048043825 -0.0043547377 0.053259112 0.007997796 0.024024472

lstm.bias_hh_l0 f4 [512]
00000000: f157 113e f882 d73d 2199 3b3e df02 553d
00000010: a702 8b3d fd99 22bd b906 043e 0617 3ebd
00000020: 864c 4f3d f04a a33d 257e fe3d 7894 8e3c
00000030: 31cb 363d 1bb2 e23d e3b0 883c e7db 353e
00000040: 8146 9e3d 5be1 e93d 6c03 393d 48f1 c73d
00000050: b00e b23d 58fa 9a3c 275c 823d 1d11 003e
00000060: a079 79bc 66a3 0e3e 905d 3e3d 021e e53d
00000070: 211d 9d3d 7f0c d53d 8ac4 e53d cba2 fa3d
00000080: b1ae 173e 3bed d1ba e0d1 af3b 2a9d 853d
00000090: 849a e0bc f15d e73d dafb 4c3d 5fdc 153e
000000a0: e2d7 3c3d f09c 833d dd84 753d 5b9f 143e
000000b0: 98c0 afbd 05d1 433b cff8 fc3d f23f bc3d
000000c0: 3918 3b3c 8602 1e3d 0269 cc3d d5e9 393d
000000d0: 9875 2fbd 8d68 343d 4128 383d 9bef 383c
000000e0: 8e57 d23c f930 e63d ee57 9a3d f07c 1b3d
000000f0: 9a9e 913d beff fa3d 5360 62bd cdf6 4fbd
00000100: d659 133e c972 193e 1dec 793d 08bf 043e
00000110: f1ba 3b3e bd13 a03d 54b7 2d3c 3d0b 3f3c
00000120: 56d4 083e 2f7b 9c3c c65d 103d 073c 773d
00000130: 73b3 dd3c b33d e2ba 3584 863d 620b e43d
00000140: 0f2e c93b bd96 d33d 11d8 5e3d 61d3 8bbd
00000150: 1535 533c ee31 ad3e 0ef3 483d ba67 a9bd
00000160: 9644 843d 6d0a 9e3d 3036 683c d6d6 993d
00000170: cfe1 50bc ef2f 233d 33ad 1f3d 8c57 023d
00000180: 5ad3 da3d e9f2 073d c7ed adbb aec4 823e
00000190: 35e0 ff3d 4e7b 82bb 6ee8 953c 2b33 6fbd
000001a0: 2ab7 dd3d a588 e13d 4553 e33c 69b0 8f3d
000001b0: ea45 98bc cf5c 0f3e 4ec7 023c 95d0 863b
000001c0: 7a6a 6d3d 55b1 633d 33ba 9a3d 7f4e ae3d
000001d0: d4a4 56bd dd54 153e 7f9c 923d 89b5 4cbd
000001e0: e538 543d b29a 133c 350d 393d 6786 db3d
000001f0: d19c 303d 4769 f1bc 054c 863d 48ff ca3d
00000200: e4e0 8abd f9cb 9ebd b9d2 a4bd 45d1 843d
00000210: 70ea 073c bbed 89bd 8fe7 a03d bcf7 8fbd
00000220: 8ec2 63bd 6c1a 84bd 248d e13c 80fd 163b
00000230: 7c5e 013d a020 3abb e0e8 0a3d 5a7f 6d3d
00000240: 24b0 9fbc 809f e3bc 4adc 3e3d a22e 633d
00000250: 486f 033c 134f 9d3d 82a2 163d 72ec 55bd
00000260: 15c8 b3bd 422b 683d e17c 873d 8568 39bd
00000270: 7035 0e3c 3b24 b33d e068 24bd 842a bc3c
00000280: 7ff1 7dbd 54c7 dd3c 472e b03d 9e40 4fbd
00000290: f64c 543d d82d 43bd 2c38 adbd 9883 12bd
000002a0: 2ebf 543d 70dd c4bb 4025 f5bb ef82 913d
000002b0: ba96 373d 6e81 a8bd e683 d7bc 7e1e 6f3d
000002c0: 42f7 9bbd b912 3abd af7e 8fbd ee7b 77bd
000002d0: 9e47 533d c8af 68bc 509b 7bbc d31c 9ebd
000002e0: 023c 563d b469 9ebc 1880 c3bc 93ae 64bd
000002f0: 88f4 91bd 8ced 76bd 0613 07bd 6eb9 67bd
00000300: fb7a ab3d 2075 cbbb 30f9 233c fee0 a6bd
00000310: 742c afbd aca3 cfbc 6819 29bd f5d6 aabd
00000320: aefb 06bd ee28 1f3d 0229 abbd 6053 0fbc
00000330: f070 f93b d018 dabb 245c 933c 32d9 163d
00000340: 0c0f 8ebd 7f0b 923d 2fdf 8f3d c11d a53d
00000350: 50fe 343c d1cd ad3d b039 aebd 1c0d fa3c
00000360: ee00 443d 68e3 4dbd 0772 a53d 68a4 23bc
00000370: 2e2d a6bd b4fe f13c e00f 18bc 9435 c2bc
00000380: 6c3c 82bd b84e d53c 40ff 1fbc e5df 913d
00000390: 9491 8fbc 6fb7 853d 7f10 833d 69e0 a03d
000003a0: 062e 523d 80f8 413a 4434 8dbc 7be4 a43d
000003b0: 40ee 48bc 80cd 8cbb 6e48 5d3d a0fa d7bc
000003c0: 0504 a23d 6282 46bd 1111 a63d e2ef 0b3d
000003d0: 80e1 7d3a dd34 9a3d 0ab1 7d3d 50f7 6a3c
000003e0: 4f7d afbd d657 113d af60 a83d 00c9 963c
000003f0: 3a5e d5bc 2eff 363d cf17 57bd 53e9 863d
0.14193703 0.10523027 0.18320133 0.05200469 0.06787615 -0.039697636 0.1289319 -0.046408676
0.050610088 0.079732776 0.12426404 0.01740478 0.044627372 0.11069127 0.016685909 0.17759667
0.07728291 0.11419936 0.04516928 0.097628176 0.08694208 0.018918201 0.06365233 0.12506528
-0.015226752 0.13929519 0.046475947 0.11187364 0.076715715 0.10402774 0.112191275 0.122380815
0.14812733 -0.0016016135 0.005365595 0.06524117 -0.027417429 0.11297215 0.050044872 0.14634846
0.04610432 0.06426418 0.05994116 0.14513914 -0.08581656 0.0029879224 0.12352144 0.09191884
0.011419349 0.038576625 0.09980966 0.045389015 -0.042836756 0.04404502 0.044960264 0.011287595
0.025676515 0.112398095 0.075363025 0.037960947 0.07110329 0.1225581 -0.055267643 -0.050772477
0.14389738 0.14985193 0.06101619 0.12963498 0.18333031 0.07816265 0.010602791 0.011660394
0.1336225 0.019101707 0.03524568 0.06035998 0.027063107 -0.001726082 0.06568185 0.111349836
0.006139524 0.103314854 0.054405276 -0.06827427 0.012891074 0.33827156 0.04905992 -0.082717374
0.06458394 0.07716832 0.014173076 0.0751168 -0.012749149 0.039840635 0.038983535 0.031821772
0.10684843 0.03319064 -0.0053078863 0.2554068 0.12493936 -0.003981984 0.018299308 -0.058398407
0.108259514 0.11012391 0.027749667 0.070160694 -0.018588025 0.14000247 0.007982088 0.0041142204
0.057962872 0.05558904 0.07555046 0.08511066 -0.052403286 0.14583154 0.071587555 -0.049977813
0.05181207 0.00900905 0.04517861 0.107189946 0.0431183 -0.029469145 0.06557468 0.09911972
-0.06781176 -0.077537484 -0.08048005 0.064852275 0.00829564 -0.067347966 0.07856666 -0.070296735
-0.055605464 -0.06450352 0.027533121 0.0023039281 0.031584248 -0.0028400794 0.033913493 0.05798278
-0.01949317 -0.027786016 0.046596803 0.055464394 0.008022137 0.07681098 0.036776073 -0.052227445
-0.08778397 0.05668188 0.06615616 -0.045265693 0.008679733 0.08747145 -0.04013908 0.022969492
-0.061997887 0.027072586 0.08602577 -0.050598733 0.05183121 -0.047651142 -0.084579796 -0.03577003
0.051940136 -0.0060078427 -0.007481247 0.07105052 0.04482148 -0.08227812 -0.026308011 0.05837869
-0.0761552 -0.04542801 -0.07006585 -0.060420923 0.05158197 -0.014202066 -0.015356854 -0.077203415
0.05230332 -0.019337513 -0.02386479 -0.05583055 -0.07126719 -0.060285136 -0.032977127 -0.056573324
0.08373066 -0.0062090307 0.010008141 -0.081483826 -0.08553401 -0.0253466 -0.041283995 -0.08341781
-0.032954864 0.038857393 -0.08357431 -0.0087479055 0.00761234 -0.00665579 0.017988272 0.036828227
-0.06936464 0.07131099 0.07024991 0.08062316 0.011046961 0.08486522 -0.08507097 0.03052383
0.04785245 -0.0502657 0.080783896 -0.009987928 -0.08114086 0.029540397 -0.009281129 -0.023707189
-0.06359181 0.026038513 -0.009765446 0.071227826 -0.017525472 0.06529128 0.06399631 0.07855303
0.051313423 0.0007399395 -0.017236836 0.08051392 -0.0122638345 -0.0042969584 0.054024152 -0.026364625
0.07910923 -0.048464186 0.08108724 0.034164317 0.0009684786 0.07529614 0.061936416 0.01434119
-0.085688226 0.035484158 0.08221566 0.018406391 -0.026045907 0.044676952 -0.05251294 0.06587472

lstm.weight_ih_l1 f4 [512, 128]
00000000: 4516 c3bd 2e0e 07be ae86 cd3c e900 9dbd
00000010: 4dff 223e e331 a63d 3a5f 2f3c 3359 163d
00000020: a731 f4bd 1307 90bd 550b 1aba 907f 13bd
00000030: ae95 ef3d 1443 87bc f294 cfbd 3aa9 bfbd
00000040: 1c9c b7bd 8128 033e 73e0 cfbd 3670 a83d
00000050: 5998 873d 11ef 1cbd 8dc5 afbd 817d b2bd
00000060: b4a1 f03d ef1f 843b 2cd7 783d 8228 ac3c
00000070: 8bd9 a2bd e9dd d33d 9a9b 88bc 1a69 10be
00000080: 39f2 ecbd 8396 683d 6bf9 1cbd c07f e8bd
00000090: 904a fe3d 6eb8 fd3c a139 00be 4cbe cbbb
000000a0: 1d2b 97bd 65f3 8c3d b2f7 a3bd 8a70 d33d
000000b0: dba8 323d e514 073d 255e a33d 867f 953d
000000c0: 281c 10be a2d0 cc3d 586f c1bd f2f3 2bbd
000000d0: c71c 443c 74e1 63bd 503c 383d 4dfa 293e
000000e0: 995c 9ebc 5b40 31bc b4ef a2bd cb96 393c
000000f0: 295c 0ebe db94 c6bc 4861 1abd 2732 25be
00000100: 0ab6 fabc 6da6 ac3d e872 00bd 0830 cc3d
00000110: c8d1 4b3d 2ad0 e1bd 9290 00be 7b4f 743c
00000120: a362 42bc efc1 c93b 89ba 9e3c fdc3 123e
00000130: e70c 603d fd5f 53bc 8bd8 183d 84fa 43bc
00000140: a6c6 e13d 53bd 273d 5fa8 a7bd 996b 223e
00000150: 43a3 163e b876 ebbd 0680 c33d 612f 8bbd
00000160: 5022 8cbb ec2b d53d 114b c53c 294e 0c3e
00000170: e26b d1bd cbd9 b63d b52d f53d ec0f 603d
00000180: 4e5b dbbd 8181 303e c1b3 2f3e fe11 37bb
00000190: 1be3 37bc e252 523b 05f8 96bd 3484 1abc
000001a0: 5138 ed3c 5225 09be 381e bc3d 01cb dabc
000001b0: aa32 46be 9d1b 04be be5d 17bd 532e d8bd
000001c0: 6d53 753d 3042 12bd 38aa 253e 5cec a1bd
000001d0: 6fa4 2ebd 6884 eabc 1635 07be 2c5a 06be
000001e0: 52e1 96ba 2685 633d 07b6 06be 6cb3 743a
000001f0: d940 d5bd 488b 5cbc 5eed a9bc 5477 8a3b
00000200: de05 253d 93d7 cfbd c885 f83a 9c12 a2bd
00000210: 34bf a33c 045e ce3d 045e d83b 21b8 093e
00000220: a864 87bc 3d1f 013d caac b6bd 7ed9 25bd
00000230: b16f 73bc b658 963b f09c b5bd e14e a23d
00000240: c7d0 d7ba b312 de3d a171 a5bb a187 c6bd
00000250: 09e8 1c3d 2773 dbbb 2c5a b7bd 969f a6bd
00000260: 1aa9 3b3d 409a 533d a8ef 6bbd d270 3ebc
00000270: 81b1 11be b8eb df3c 2892 c6bc f11c 2cbd
00000280: cf17 41bc 6dad eebc 3f17 683d 4535 b2bd
00000290: f4f5 9bbb 8ab4 2bbd 4d31 2d3c eb66 853d
000002a0: 338c 533d 6559 a93d 5099 cdbd eef2 253d
000002b0: 9f84 773c 2d31 9d3d 173f df3c d79f d3bb
000002c0: 136d 493c 3c6e 41bd 2304 763d 5e8a 7ebc
000002d0: c531 84ba b556 13be 13bc f5bc 6261 11bd
000002e0: 4d2b 85bd 59af 8bbd 77be b7bd 3447 0fbc
000002f0: 8610 02be 13cb 0fbd 295c da3d c34b fcbd
00000300: 25f5 a2bd 6900 a23d f7a6 b43d 4715 373d
00000310: 6556 08bd 2bf4 ccbd f7f3 703d da92 053e
00000320: aa09 0abb fdc8 e9bc 1287 863d a880 473d
00000330: abff 6dbc 6f00 833d a88f 1dbd ec12 ce3d
00000340: 0664 323d df7a 043a 14d6 aabd 2940 a9ba
00000350: 107d af3d a2e8 a9bd c46c 7e3c 02de d2bd
00000360: 8cc0 4dbd b59d 0c3e eb6b 1bbc c4b6 1ebc
00000370: fd67 463d 6fd4 a33c ee5b ca3d 9c97 1639
00000380: 0bac bb3a 7002 2abb 8dc9 29bc 6a29 f23d
00000390: 6bd3 173d e383 263e 692e 71bb 9694 d3bd
000003a0: 5fce 4dbd 441c b3bd 2d08 22bd 6705 ab3d
000003b0: 2287 4dbe d584 56bd 5ee8 32bd 46ef 4c3d
000003c0: 8070 153d 467d bf3b 62dc c83d a684 61bd
000003d0: 9774 2ebd 76a1 9dbd 6662 02bd 53ae ae3c
000003e0: b6da 33bd efa2 53bd 3bed 0ebe f98d 513d
000003f0: 586b 203d 297e ad3c fe65 903d f324 f9bb
-0.09525732 -0.13189003 0.025088634 -0.07666189 0.15917702 0.08114984 0.010703856 0.03670616
-0.11923533 -0.07032599 -0.00058763224 -0.036010325 0.11698471 -0.016511478 -0.10135831 -0.09358449
-0.089653224 0.1280842 -0.10150232 0.082245275 0.06620855 -0.03831393 -0.08582602 -0.08715344
0.117495924 0.004032127 0.06075208 0.02101541 -0.07951649 0.103450604 -0.01667576 -0.14102593
-0.11569638 0.056784164 -0.0383238 -0.113524914 0.124165654 0.030971732 -0.12521984 -0.0062177535
-0.0738127 0.06882361 -0.080062285 0.103241995 0.043618064 0.03297891 0.07976941 0.07299714
-0.14073241 0.10000731 -0.09445065 -0.04198069 0.011969752 -0.05563493 0.044979393 0.16599388
-0.019331263 -0.010818566 -0.07955876 0.011327456 -0.13902344 -0.024240902 -0.03769043 -0.16132413
-0.030604381 0.08430181 -0.031359583 0.09970099 0.04976061 -0.11026032 -0.12555149 0.014911528
-0.011864337 0.006157152 0.019376056 0.14332576 0.054699805 -0.012901303 0.037315886 -0.011961583
0.11024217 0.040952038 -0.08186411 0.15861358 0.14710717 -0.11497253 0.09545903 -0.06796146
-0.0042765513 0.10408768 0.024083646 0.1370169 -0.10225655 0.089282595 0.119716085 0.054702684
-0.10710774 0.17236902 0.17158414 -0.0027934308 -0.01122358 0.003209286 -0.07371525 -0.009430934
0.028957518 -0.13393143 0.09185451 -0.026708128 -0.19355264 -0.12901159 -0.036954634 -0.10555711
0.059894014 -0.035707653 0.16178215 -0.0790641 -0.042637285 -0.02862759 -0.13203844 -0.13120335
-0.0011511242 0.055546902 -0.13155375 0.0009334597 -0.10412759 -0.013460942 -0.020743068 0.004225651
0.0402888 -0.101485394 0.0018960768 -0.07913706 0.019988634 0.10076526 0.0066030044 0.13449146
-0.016527489 0.03152393 -0.08919676 -0.04049062 -0.014858172 0.004588212 -0.08867824 0.07925201
-0.0016465419 0.1084341 -0.005048946 -0.09693838 0.038307223 -0.006697077 -0.08952746 -0.08135907
0.045815565 0.051660776 -0.0576016 -0.011623578 -0.14227869 0.02733408 -0.024239615 -0.04201979
-0.011785462 -0.02913543 0.056662794 -0.087015666 -0.0047595445 -0.041920222 0.010570836 0.06513771
0.051647376 0.08269004 -0.10039008 0.04051488 0.015107303 0.07675395 0.027251763 -0.0064582634
0.012294072 -0.04722427 0.06006254 -0.015535919 -0.0010085633 -0.14388545 -0.029996907 -0.035493262
-0.065023996 -0.06820554 -0.08971875 -0.0087450035 -0.12701616 -0.035105776 0.106621094 -0.12319138
-0.07956914 0.079102345 0.088209085 0.044698026 -0.033285517 -0.10007509 0.058826413 0.130443
-0.002106289 -0.028538221 0.06568731 0.04870668 -0.014526288 0.06396567 -0.03846708 0.10062203
0.04355242 0.00050537096 -0.083416134 -0.0012912798 0.08568776 -0.08296324 0.015528861 -0.10296251
-0.050232455 0.13732035 -0.009486179 -0.009687129 0.048439015 0.019998757 0.098808154 0.00014361594
0.001431824 -0.0025941394 -0.010362995 0.11824305 0.03706686 0.16261248 -0.0036801344 -0.10331075
-0.05024564 -0.087456256 -0.03955858 0.0835064 -0.2007108 -0.052372772 -0.043678634 0.050032876
0.03648424 0.005843791 0.0980766 -0.055058144 -0.042591657 -0.07696812 -0.03183212 0.021323359
-0.04390975 -0.051669057 -0.13957684 0.051160786 0.03916487 0.021178322 0.070507035 -0.0076032816

lstm.weight_hh_l1 f4 [512, 128]
00000000: 06a6 9cbd 8d29 9d3d a056 7d3b 4069 c6ba
00000010: c0b8 56bb 7098 783c 50c3 b23b 401b 343b
00000020: c2af 583d 089c a4bd 72e1 213d fef3 393d
00000030: 5162 8a3d 70ba 42bc 20bf 9a3c dadd 323d
00000040: 840f 8a3c 18fc ee3c deaa a0bd a3fb 21bd
00000050: 1a35 533d a86d c4bc b4cf 06bd 7c36 023d
00000060: e9ae 95bd ccb5 69bd 6b0b 8b3d 5908 af3d
00000070: 00fa e2b9 21ff a3bd 6155 b13d 45c9 35bd
00000080: 284d 8cbd c06a 9d3b 448d f13c f80d eb3c
00000090: e60f 2f3d 74c8 88bd d8ad aabd 67ae 923d
000000a0: 8850 81bd edd7 b03d 640a a8bc 0490 973c
000000b0: c5ac a1bd 9871 39bc cccb 84bd 44e3 ce3c
000000c0: 60c8 8a3b 80e7 173b 10fa 9d3c 468e 04bd
000000d0: 8230 503d 8c8f 8ebd 306b b5bb ea1c 493d
000000e0: e803 04bc 8a44 60bd 6154 aa3d 168f 693d
000000f0: dc1e 7cbd 2ec9 7d3d e52c afbd b429 d53c
00000100: 9050 553c 6c89 8cbc 9cda c83c 00cc a23b
00000110: 0b5e a53d d47f da3c 4663 a5bd 0cf4 a03c
00000120: c80c 17bc 6a58 513d 34c9 8fbd 60e4 013b
00000130: 40a5 30bb 14c5 babc 5866 08bc c017 f93c
00000140: bc85 a7bd 51f6 b4bd 60b4 1b3b f49d 81bc
00000150: bf3e 65bd a642 7ebd 0028 f73c d629 77bd
00000160: c9f9 a4bd 6375 a5bd 74ca d1bc a01d 0a3c
00000170: 4ebf 9dbd f7b8 8c3d 3c7d 5fbd 362e 6e3d
00000180: d625 d9bc a7b6 a73d d6a6 683d df74 ae3d
00000190: 3240 083d 7fcd 8e3d eee9 1f3d 1657 6dbd
000001a0: 859f 823d f8ee c5bc 6cb9 f03c 703c 37bc
000001b0: 929f 7b3d 30b3 d6bc 1480 78bd c958 ac3d
000001c0: 4bea ac3d 7ced 123d ae2d 8cbd 70cd 0d3d
000001d0: 40f9 bc3b 5766 8a3d 5865 083d 3858 403c
000001e0: 709e a3bd d94f 903d ac11 8ebd 48b0 57bc
000001f0: 5ea1 adbd de5f 6cbd d8b9 a3bd b4e1 84bd
00000200: 28db 053c 14d1 d63c 1656 4fbd a5c1 3cbd
00000210: 3814 12bc a67d 92bd 0c70 d8bc ee0d 433d
00000220: b8d7 3a3c 64a6 e7bc 1a7f 583d d0d3 17bd
00000230: c7b4 b33d f4d1 a8bc e0c3 b1bb 9a34 713d
00000240: 9b2f 8b3d 0e07 12bd 3e2a 663d b027 ab3b
00000250: 14e3 6abd 2c4d f23c 4fd6 813d e980 a4bd
00000260: d04c 9a3b 4589 913d 7c58 bf3c 869f 063d
00000270: 98f0 95bd 6c16 cebc 04bc e13c 2c3e c43c
00000280: deee 2a3d c0cc aa3b 688f 6ebd aa62 4d3d
00000290: 92be 5d3d df28 a23d a397 12bd 00e8 6a38
000002a0: 50a5 d83b 5ec6 2ebd 0002 aabc 407e b0ba
000002b0: b26f 2f3d 2173 a23d 6f3a 66bd b049 ce3c
000002c0: 851b aebd f221 98bd 27d3 1dbd d04d 813c
000002d0: a8de 013d e475 7abd 92ec 503d 9ccc 87bd
000002e0: cb20 8d3d 4a61 453d ec1f e9bc 44dc f73c
000002f0: 61e7 50bd b805 97bd 5ada 63bd 8a8a 493d
00000300: 809b 123b 1849 6ebc 4cec 81bd e06d f3bb
00000310: 768f 343d bf27 ac3d 9e55 0f3d 75ec 18bd
00000320: a230 6f3d 88e0 e23c e87d 79bc 827b 60bd
00000330: cc5a b0bd 9015 a0bc 506c 123d b6f8 373d
00000340: baf0 3c3d 0d89 933d eed3 a6bd 4663 403d
00000350: f094 9e3b 5496 50bd be5b 563d 406b 083b
00000360: a17c 83bd b11a 813d a1cb aa3d 1b88 68bd
00000370: e469 72bd b70d 8c3d d7c9 b3bd 93b5 26bd
00000380: be46 80bd b197 79bd 5a69 f5bc 929e 9bbd
00000390: 83b8 35bd 789f 7d3c 7026 a9bb 3420 f73c
000003a0: 0644 7c3d f0cd 5ebd a4db 083d 7289 94bd
000003b0: 4385 a7bd 31c2 afbd 3b89 8c3d 1809 8ebc
000003c0: 00c1 353c e6d5 86bd 11b0 97bd edf7 59bd
000003d0: 6625 623d 7a40 303d b278 69bd 8823 92bd
000003e0: 6acf 193d 72d3 153d 447b 89bc 2aaf 773d
000003f0: 4778 67bd e02d 8f3b b803 2a3c a0a8 b0bd
-0.07648854 0.07673941 0.003865637 -0.0015137568 -0.0032763928 0.015173063 0.005455412 0.0027482063
0.05290199 -0.08037573 0.039521642 0.045398705 0.067570336 -0.0118852705 0.018889964 0.043668605
0.016853102 0.029172942 -0.0784509 -0.03954662 0.051564313 -0.02397807 -0.032912925 0.03179024
-0.07308752 -0.05705814 0.06789287 0.08546514 -0.00043292344 -0.08007646 0.08658863 -0.0443814
-0.06850654 0.0048039854 0.029486306 0.028693184 0.04273977 -0.066788584 -0.08333939 0.07162171
-0.06314188 0.086349346 -0.020512767 0.01850129 -0.07894281 -0.011318587 -0.06484184 0.025254853
0.0042353123 0.0023178756 0.019284278 -0.032362245 0.05082751 -0.06960973 -0.0055364594 0.04909984
-0.008057572 -0.054752864 0.08316875 0.057021223 -0.061552867 0.061959438 -0.08553485 0.026020862
0.013019696 -0.017155372 0.024518304 0.0049681664 0.08074578 0.026672281 -0.080755755 0.01964762
-0.009219356 0.05110971 -0.07020798 0.001981996 -0.0026953965 -0.022799052 -0.008325182 0.030406833
-0.08179805 -0.088360436 0.0023758635 -0.015822388 -0.055968042 -0.06207528 0.03017044 -0.060342632
-0.08055455 -0.0807903 -0.025609232 0.008429915 -0.07702504 0.06871217 -0.054562792 0.05814954
-0.0265073 0.08189135 0.056799732 0.08518385 0.033264346 0.06972789 0.039041452 -0.05794438
0.06378082 -0.0241618 0.029385291 -0.011183843 0.061431475 -0.02620849 -0.06066902 0.08415372
0.08443125 0.035871014 -0.0684465 0.03461975 0.0057670176 0.06757801 0.033299774 0.011739783
-0.07989204 0.0704648 -0.069369644 -0.013164587 -0.08478044 -0.057708614 -0.07994431 -0.06488362
0.008169927 0.026222743 -0.050619207 -0.04608311 -0.008915953 -0.07152872 -0.026420616 0.047620706
0.01140397 -0.028277583 0.05285559 -0.037067235 0.08774715 -0.020607926 -0.0054249614 0.058888055
0.067961894 -0.03565126 0.05619263 0.005223237 -0.057345465 0.029577814 0.06339704 -0.080324
0.004708864 0.0710626 0.023357622 0.032866977 -0.0732128 -0.025157176 0.027555473 0.023955427
0.041731708 0.0052123964 -0.05824223 0.05014292 0.05413682 0.07917952 -0.035789143 5.6006014e-05
0.0066115037 -0.042669646 -0.020752907 -0.001346536 0.04283113 0.07932115 -0.05620807 0.025181621
-0.08501343 -0.074283496 -0.03853145 0.015784174 0.031706482 -0.061147586 0.05100686 -0.06630823
0.068910204 0.048188485 -0.028457604 0.030256398 -0.05100191 -0.07374138 -0.05562816 0.049204387
0.0022370517 -0.014543794 -0.06343898 -0.0074288696 0.044082128 0.084060185 0.03499376 -0.037334878
0.05839599 0.027694955 -0.015227772 -0.054805286 -0.08611068 -0.019541532 0.035747826 0.044914924
0.046128012 0.07203875 -0.08145891 0.046969675 0.004839532 -0.050924614 0.052333586 0.002081588
-0.064202555 0.06303919 0.083396204 -0.056770425 -0.059183016 0.068385534 -0.08778732 -0.040700506
-0.06263493 -0.06093568 -0.029957462 -0.07598604 -0.044365417 0.015479915 -0.005162053 0.030166723
0.06158831 -0.054395616 0.03341259 -0.07252778 -0.081797145 -0.08581961 0.06862112 -0.01733832
0.011093378 -0.06583767 -0.07406629 -0.053214956 0.055211447 0.04303024 -0.05699987 -0.07135683
0.03755132 0.036578603 -0.01678241 0.060469784 -0.05651119 0.0043694824 0.010376863 -0.08625913

lstm.bias_ih_l1 f4 [512]
00000000: 35ad 4f3e ba0f 043e abb0 1f3e 3b86 d73d
00000010: a709 223e f992 3b3e db60 453e 1e5c 713e
00000020: 32e5 733e 94f3 963e 1aec 803e 6739 583e
00000030: 40a2 623e a3fa 0f3e 2689 323e 5de7 543e
00000040: e915 233e 55dc 3a3e d4bc 643e 6a48 083e
00000050: cd18 4f3e cf05 5e3e 087d 013e 2a13 493e
00000060: eb64 c93d 1490 cd3d abaa 0e3e ea77 1b3e
00000070: 2f2d 1b3e 19a7 5a3e a25f 9ebd 228d 6e3e
00000080: 0a96 523e 347d 0c3e 8ca6 413e 84c9 163d
00000090: 467f b33d 76a4 d53d a1dc 7d3e 0b97 3f3e
000000a0: 59f1 cb3d 6b31 8e3e 0402 983e 093f f03d
000000b0: b0b6 fa3d dc2c a83d 114e 403e 6392 0c3e
000000c0: 672d 193e 2f31 113e a037 ff3d e483 543e
000000d0: ac0b d6bd 94cc 293d 12ab 963e 8e21 6d3e
000000e0: 6e8f 4d3d 434a 833e 3ede 473e 7c27 8b3e
000000f0: 5ee2 493e 4776 7d3d a5dc 6c3e 25b7 fe3c
00000100: d30e e63d 79ce 643e 6a38 5a3e 32c8 3d3e
00000110: c7dc 023e 0879 953d eefc 023e d8b8 cf3d
00000120: 51dc f63d 7ddc 093e c0f0 4e3e 2eff 453e
00000130: 9c16 203e eaf2 013e 6fdf 853e 370a 933c
00000140: 10de 2c3e 8010 ab3d e4cc e23d 5878 733e
00000150: 3966 8c3e 49a6 4f3e 4326 2a3e ffab d63d
00000160: d739 e93d 0e52 263e 7a3e 923d c390 5c3e
00000170: df3a b73d 35b5 e93d df43 d03d 7f0d 0a3e
00000180: 026d 513e 0d1b 353e 9aa2 913d 6464 9e3e
00000190: 6b53 003e 5529 493e fef6 7c3e 9a38 693d
000001a0: a2a9 583e 1331 0e3e 1126 7e3e 11c3 2b3e
000001b0: 8d11 d23d 5119 de3d d27b 783e d3ff 363e
000001c0: 4ae5 293e b5c0 863e fa3c 583e 22c1 f93d
000001d0: 6391 103e 55b5 843e 18eb 04bc b1d2 c13d
000001e0: 98d4 d53d 4102 f33d 288a b83d ad3b 553e
000001f0: d309 1c3e 6561 3c3d e0f2 873d 34ba 223d
00000200: 1816 9bbc 3cb0 143d 9aa1 603d bd6f aa3d
00000210: 89f7 913d cafa 7c3d 8061 c6bb 75af ab3d
00000220: c0df 123d c8fb aebc 9149 9dbd 1c8f e53c
00000230: 63cb 6fbd c362 a3bd 12c7 97bd d60d 84bd
00000240: c2a4 5a3d b4e6 95bc f4d0 9c3c f2ae 613d
00000250: 744f e83c b0d0 e3bb 96ba 2fbd 8620 88bd
00000260: a7a8 a73d 0e18 00bd 7d86 a93d d619 25bd
00000270: 0e2e 173d f0e9 0cbc a8fd 5bbc 70aa febb
00000280: e406 a9bd 72f7 81bd 67d5 863d 501b b53c
00000290: 80ae 1cbc 4d69 57bd 14b4 88bc b536 38bd
000002a0: d672 68bd f72d 17bd 0011 04ba 3ab3 8cbd
000002b0: 0cae 8ebd 632a ad3d 108c 92bb d64d 2c3d
000002c0: 9a16 483d f0ce 6abc 60c6 73bc bdc7 a53d
000002d0: b4b0 fabc 49d3 2abd 37fe 2dbd e01a 3abb
000002e0: 4ef8 4c3d 3eee b1bd 3852 433c ad52 933d
000002f0: 60cd 053d 30a8 813b 6f3f a33d edd5 a73d
00000300: 6e27 5b3d f205 50bd 2cb4 ad3c 9358 6abd
00000310: 18b7 713c 5527 853d 6b17 853d 9bd2 a43d
00000320: 0d02 12bd 1f13 af3d d84e a73c 1546 a8bd
00000330: e0a9 f63c 34ed 91bd b09b cf3c 1208 8abd
00000340: edc8 9f3d 1874 6ebd b875 de3c 2b1e 9c3d
00000350: da4f 8fbd 00d8 78bd be18 e4bc d08b ce3c
00000360: a0f8 a3bc 42f8 e4bc 0083 5dba 0a84 4c3d
00000370: 408e bcba dc74 39bd 49ad 823d 1039 ab3c
00000380: f749 4dbd 1ca1 8a3c 1865 8cbd e400 90bd
00000390: 5ae2 7a3d 629a e5bc 402d 833a 4066 80ba
000003a0: 8ff4 33bd ac91 8abc b784 9cbd 4600 0bbd
000003b0: 4e15 5d3d b462 e4bc 106f 773c 50a5 a03c
000003c0: d6d8 f4bc e61e 4c3d 68d4 893c 3698 083d
000003d0: 003d f3ba 7c78 bebc a69d 0c3d 9d45 ac3d
000003e0: 20e5 72bd 88c4 07bd f27c 603d 06d3 173d
000003f0: 0260 14bd e081 0d3d 54dc 76bd ce9c 723d
0.20280917 0.12896624 0.15594737 0.10523649 0.15823995 0.18317784 0.19275229 0.23570296
0.238179 0.2948271 0.2518013 0.21115647 0.22132206 0.14060454 0.1743513 0.20791383
0.15926327 0.18248112 0.22337657 0.13308874 0.20224304 0.21681903 0.12645352 0.19636217
0.09833702 0.10037246 0.13932292 0.15182462 0.15153955 0.21352805 -0.07733084 0.23296025
0.20565048 0.13719636 0.18911189 0.036813274 0.0876451 0.10431759 0.24791194 0.18709962
0.09958143 0.27772078 0.29689038 0.11730773 0.12241876 0.08211681 0.1877978 0.13727717
0.14958726 0.14178918 0.124617815 0.20753437 -0.10451445 0.041454867 0.2942739 0.23157331
0.050185613 0.25642595 0.19518372 0.27178562 0.19715258 0.061880376 0.23131044 0.03109319
0.11233296 0.22344388 0.21310583 0.185334 0.12779532 0.072984755 0.12791798 0.10142678
0.12053741 0.13463016 0.20209026 0.19335625 0.15633625 0.1269032 0.2614703 0.017949207
0.16881585 0.083527565 0.11074236 0.23776376 0.2742174 0.20278277 0.16616158 0.104820244
0.11387985 0.16242239 0.07140823 0.21539597 0.08946776 0.114115156 0.101691954 0.13481711
0.2045174 0.176861 0.07111092 0.30935967 0.12531821 0.19644673 0.24703595 0.056938745
0.2115846 0.13885908 0.24819209 0.1677363 0.10257254 0.108446725 0.24265984 0.17871027
0.16591373 0.263189 0.2111701 0.1219504 0.1411796 0.25919595 -0.008112691 0.09464014
0.1044094 0.11865664 0.09010726 0.20823546 0.15238123 0.04599132 0.066381216 0.03972836
-0.018931434 0.036300883 0.054841615 0.08322094 0.07127292 0.06176261 -0.0060541034 0.08383075
0.035857916 -0.021360293 -0.07680047 0.028022341 -0.058543574 -0.07977822 -0.074110165 -0.064479515
0.05337978 -0.018298484 0.019142605 0.05509848 0.028358199 -0.0069523677 -0.04290255 -0.06646828
0.08186465 -0.03127294 0.08277605 -0.040307842 0.036909156 -0.008600697 -0.013427176 -0.0077717826
-0.082532674 -0.063460246 0.06583672 0.02210775 -0.009563088 -0.052590657 -0.01668743 -0.044974048
-0.05675014 -0.03690907 -0.00050379336 -0.06870122 -0.069667906 0.0845535 -0.004472263 0.042066418
0.04884968 -0.014331564 -0.014878839 0.08094738 -0.030601837 -0.041705403 -0.042478766 -0.0028397366
0.05004149 -0.08688019 0.011921458 0.071935035 0.032666564 0.003956817 0.079710834 0.081951
0.0535044 -0.05078692 0.021204077 -0.057213377 0.014753126 0.065016426 0.06498607 0.08047982
-0.035646487 0.08548569 0.020423338 -0.08216492 0.0301103 -0.07125321 0.025342792 -0.067398205
0.078019954 -0.058216184 0.027155742 0.076229416 -0.06997652 -0.06075287 -0.02784383 0.025213152
-0.020016015 -0.02795041 -0.00084500015 0.04993061 -0.0014385656 -0.04527746 0.06380708 0.020901233
-0.050119366 0.016922526 -0.068552196 -0.0703142 0.061251022 -0.028027717 0.0010007992 -0.0009796098
-0.0439344 -0.016915165 -0.07642501 -0.033935808 0.053975396 -0.027879097 0.015102163 0.019610077
-0.029888552 0.049834155 0.016824916 0.033348285 -0.0018557608 -0.02325081 0.034330033 0.08411715
-0.059300542 -0.03314641 0.054806657 0.037066482 -0.036224373 0.034547687 -0.060268715 0.05923157

lstm.bias_hh_l1 f4 [512]
00000000: 2753 1b3e 6419 293e eba6 453e 89cc 573e
00000010: f506 f23d 2567 333e ddcb 363e 9395 013e
00000020: 2203 893e 1865 8a3e 8768 253e d68a 8c3e
00000030: a829 423e 230e 063e 7266 563e 93ef 383e
00000040: a7de 2b3e 1f6f 783e f2dc 6b3e d929 603d
00000050: 67c6 883e f226 e13d 0d77 473e 4edc 253e
00000060: 7562 7d3e a903 c23c 8b5b 2e3e 52a1 633e
00000070: fc5b 0b3d 2342 2d3e 5c13 13be 1ccc 743e
00000080: 6c3f 523e 548e 293e 6eff 283e 6fb9 82bd
00000090: 645b ef3d d652 6c3e 907c 203e cf15 0d3e
000000a0: 253e b53c 4f09 103e 36ff 983e 7e0e 8d3e
000000b0: a69c 193e 65a3 1c3e 3bee fa3d 327f 923e
000000c0: a565 f53c 9b09 1e3e 090a 093e 213c 9a3e
000000d0: 00fa 87bd 0cc9 d23d 7a05 893e ba7a 633e
000000e0: 5e38 3b3e 8dbb 073e 4712 873e 149a 253e
000000f0: faa4 303e 1a12 f53d 3605 883e 4bba f13d
00000100: 3d39 f53d f7a0 a13d 6efa 1f3e 9875 1e3e
00000110: 91bd 733e 0dd1 403e 98ef 1f3b de24 ba3b
00000120: 3b8b 043c 5c9e 4a3e 40ec d83d 0a18 1e3e
00000130: 84cb 293e 686f 873e a1b4 0c3e ddb2 22ba
00000140: 59b9 083e 2cad 2f3e bd11 723e 3878 7b3e
00000150: 237f e43d 7b51 5c3e 0725 333e d34a d53d
00000160: e0e4 873e 60d9 8b3e 1fcf 523e 5bbe 5d3e
00000170: 4575 5e3e 3911 943d d96d 023e c797 863e
00000180: 0692 5b3e 65b0 bd3d 63e8 6f3e 2029 993e
00000190: 9ff2 123e 9552 203d 500c 1a3e c82e 42bb
000001a0: 0eb9 f63d 9787 373e 45a9 2e3e 3dcc 5a3e
000001b0: c112 ca3d 9e76 4a3d fccf 173e d13e 8b3d
000001c0: 43b2 923e 17b3 093e 34c3 693e f816 663e
000001d0: 5a00 293d 5fec 133e 1f3c 133e 3133 463e
000001e0: 5c76 663e 6589 593e 9f4b 503e 5d86 4f3e
000001f0: 1d74 163e 13cf 073d 9c5a 3b3e d345 343e
00000200: 90da 6ebd 1c33 a8bc 4c07 c1bc aa03 96bd
00000210: d8cb 4bbc 6cf0 3ebd 9bf8 903d 1888 70bc
00000220: 2f58 9b3d 36f7 433d e074 af3c 29cb 48bd
00000230: 1051 ae3c ecce ffbc 483e 24bc 7494 86bd
00000240: bdd4 9cbd deb5 debc 8ed3 7c3d d836 133c
00000250: 2bf4 2bbd f0be c43b b864 833c b049 04bc
00000260: 57e4 61bd 3cb3 5abd 4858 253c c44e 5fbd
00000270: 8767 30bd 2003 4fbc bc32 09bd 6991 843d
00000280: fab7 543d 5d53 b33d b383 a63d 1421 df3c
00000290: 243b d0bc 96c8 89bd 9cc3 6bbd 933b 20bd
000002a0: 22f6 4dbd 5048 2dbc fb73 a63d 17d4 8e3d
000002b0: d467 c43c f094 c2bb 22c2 503d dda5 8f3d
000002c0: ff66 56bd 60e5 813b 480d 68bc 0994 27bd
000002d0: c042 9a3a d4f3 cd3c 63c4 a73d 0fca 913d
000002e0: 76e0 e8bc 99f8 8cbd 081b 56bc 18c6 e5bc
000002f0: e076 51bc c299 4fbd 6691 74bd 036c 8d3d
00000300: 882f c7bc 734b a63d 9c58 113d 467a 37bd
00000310: 4bd0 a93d 6f54 9f3d 5ccf 983c fa4e 073d
00000320: 6aee b4bd 303c f53c 70cc bf3c cdef 863d
00000330: 8041 7cbd a862 34bd 1cd4 9fbc cc89 ec3c
00000340: d0a3 bb3b d1a3 943d 2693 633d 5a8a 533d
00000350: d0cd 65bc c03d f63a 685d 17bd 7b9c 963d
00000360: d29a 64bd 58de 92bc ed53 9a3d 610b 9ebd
00000370: 28d4 babc 5e89 7ebd 9a38 b2bd 8a16 e3bc
00000380: 888b 4a3c 8e27 b4bd 59f7 a33d e8d6 3cbc
00000390: ffdd 8d3d 0056 a2bd cfb1 863d cd65 8abd
000003a0: f8b9 85bd 88e0 243c a030 81bc 767d 7cbd
000003b0: 0000 093d bd4c 9b3d 1bca 923d 32ba 77bd
000003c0: d278 453d 50ea c3bb 419a af3d d63c 6a3d
000003d0: 7fa4 9dbd 60f7 8e3c 8503 aa3d 8829 353c
000003e0: 454c 56bd 9875 59bc 2452 1fbd e674 223d
000003f0: e62e 7c3d c0a6 27bd 8054 3b3c 3269 303d
0.15168439 0.16513592 0.19301955 0.21074118 0.11817733 0.17519815 0.17851205 0.12654714
0.26760203 0.27030253 0.16153155 0.27449673 0.18961203 0.1309133 0.20937517 0.1806014
0.16784154 0.2426114 0.23033503 0.05472741 0.2671387 0.10993756 0.19479008 0.16197321
0.2474459 0.023683386 0.17027108 0.22229508 0.03402327 0.1691976 -0.14362854 0.23905987
0.20532006 0.165582 0.16503689 -0.06383025 0.11687353 0.23078474 0.15672517 0.1377785
0.02212436 0.14066051 0.2988221 0.2755012 0.15001163 0.15296705 0.1225247 0.28612667
0.029955694 0.15433352 0.13382734 0.30124 -0.066394806 0.10292253 0.2676199 0.22214785
0.18283221 0.13255139 0.26381132 0.16172057 0.17250434 0.11966343 0.26566476 0.11803111
0.11973808 0.0789203 0.15622875 0.15474546 0.23802783 0.18829747 0.0024404284 0.0056806644
0.008089836 0.19786972 0.10591936 0.15438858 0.16581541 0.26452184 0.1374078 -0.0006206462
0.13351955 0.17155904 0.23639579 0.24557579 0.11157062 0.21515457 0.17494594 0.10414662
0.26541805 0.2731428 0.20586823 0.21654646 0.21724422 0.072298475 0.12737216 0.26287672
0.21442422 0.0926216 0.23428492 0.29914188 0.14350365 0.039141256 0.1504376 -0.0029629935
0.12047015 0.17922817 0.17056759 0.21366973 0.09866858 0.04942953 0.14825433 0.06799091
0.28651628 0.13447224 0.2282837 0.224697 0.0412601 0.14445637 0.14378403 0.19355465
0.22506088 0.21243818 0.20341347 0.202661 0.14692731 0.033156466 0.18296283 0.17604761
-0.058313906 -0.020532183 -0.02356305 -0.073249176 -0.012438737 -0.046616003 0.07078668 -0.014680885
0.07585179 0.04784318 0.021418035 -0.049021874 0.021278888 -0.031226598 -0.010024615 -0.06571284
-0.07657764 -0.02718633 0.06172519 0.008985244 -0.041980904 0.006004207 0.016039237 -0.008074209
-0.055149402 -0.053393587 0.010091849 -0.054518476 -0.04306748 -0.012635022 -0.03349565 0.06473047
0.051933266 0.08756135 0.081305884 0.027237453 -0.025418825 -0.06727712 -0.057559595 -0.039119314
-0.05028356 -0.010576323 0.0812759 0.06974047 0.02397529 -0.005938165 0.05096639 0.07014058
-0.05234432 0.003964111 -0.014163323 -0.04091266 0.0011769161 0.02514068 0.08191755 0.07118618
-0.028427344 -0.06883354 -0.013067968 -0.02804856 -0.01278469 -0.050683744 -0.059708975 0.06905367
-0.024314657 0.081198595 0.035484895 -0.044794343 0.08291682 0.07779776 0.018653564 0.033034302
-0.088345364 0.029935926 0.023412913 0.06588707 -0.061585903 -0.0440394 -0.019510321 0.0288743
0.005726315 0.07257808 0.055560254 0.051645614 -0.01402612 0.0018786713 -0.036954314 0.07354065
-0.05581171 -0.017928287 0.07535539 -0.07717014 -0.022806242 -0.062142722 -0.08702202 -0.027720708
0.012362368 -0.08796607 0.08006162 -0.011525847 0.06927108 -0.079265594 0.06576883 -0.06757698
-0.06529611 0.010063298 -0.015770257 -0.061643086 0.033447266 0.07582996 0.07167455 -0.060480304
0.048210926 -0.00597886 0.085743435 0.057186924 -0.07697391 0.017451942 0.083014525 0.011057265
-0.05231883 -0.013272665 -0.038896695 0.039662264 0.061568163 -0.04093051 0.011433721 0.043069072
